3_convolutional_neural_networks/models/lenet5_mnist.pt (torch, 251029 bytes, 10 tensors)

_body.0.weight f4 [6, 1, 5, 5]
0	0x3e400f41	0.18755819
1	0x3eb6d6a3	0.3571063
2	0x3e49d9b3	0.19711952
3	0x3e9d19c8	0.30683732
4	0xbd987b07	-0.074453406
5	0x3e220f98	0.15826261
6	0x3eb58c0f	0.3545842
7	0x3f2f5a51	0.68497187
8	0x3f03fadc	0.51554656
9	0xbdbe5f71	-0.09295548
10	0x3eb6c57c	0.35697544
11	0x3f080539	0.5313297
12	0x3f31908d	0.6936119
13	0x3eb44be8	0.35214162
14	0x3e41d910	0.18930459
15	0xbc330f15	-0.010928889
16	0x3ea86e7c	0.32896793
17	0x3e84846a	0.25882274
18	0x3d8472e0	0.06467223
19	0x3df217d2	0.118209496
20	0xbe99c48c	-0.30032766
21	0xbe10111d	-0.14069028
22	0xbdbc3a88	-0.091908514
23	0x3e2772d0	0.16352391
24	0xbde7e56b	-0.11323055
25	0xbdc64697	-0.09681433
26	0xbdc4cfee	-0.09609972
27	0xbe052f06	-0.1300622
28	0xbc173194	-0.009228129
29	0xbe8d2f32	-0.2757507
30	0x3e2e336c	0.17011803
31	0xbe2014f2	-0.1563299
32	0x3e67fb57	0.22654472
33	0x3dcce5af	0.10004746
34	0xbd649b98	-0.05581245
35	0x3e4ed78b	0.2019941
36	0x3e6395d3	0.22225122
37	0x3eeb6e13	0.45982417
38	0x3e90be99	0.28270414
39	0x3d6889da	0.05677209
40	0x3e443864	0.19162136
41	0x3e77438f	0.24146865
42	0x3eef698e	0.4676022
43	0x3ef04119	0.46924666
44	0x3e775b65	0.24155958
45	0xbd4c2d45	-0.04984786
46	0x3e827783	0.25481805
47	0x3e544450	0.20729184
48	0x3e5e0f02	0.21685413
49	0xbd8fec3d	-0.07027481
50	0xbe911c6c	-0.28341997
51	0xbb91446d	-0.004433206
52	0x3d230c77	0.03980681
53	0x3eb873ee	0.36025947
54	0x3e20f1a9	0.15717186
55	0x3db0f47d	0.086403824
56	0x3e8d4331	0.27590325
57	0x3e858a19	0.26081923
58	0x3e87c8f4	0.26520503
59	0xbe648515	-0.22316392
60	0x3e21a783	0.15786557
61	0x3e39ad0e	0.18132421
62	0x3e9e08b9	0.3086603
63	0xbdbcf37b	-0.09226128
64	0xbe2c575a	-0.16830197
65	0x3e2ac0ef	0.16675161
66	0x3ee50231	0.44728234
67	0xbae58add	-0.0017512698
68	0xbe81c006	-0.25341815
69	0xbeb451e2	-0.35218722
70	0x3ec0a4ed	0.37625828
71	0x3e920f87	0.2852747
72	0x3e6dd952	0.23227432
73	0xbe9a9586	-0.30192202
74	0xbeb1ede7	-0.34751818
75	0xbe606b6b	-0.21915977
76	0xbe536a76	-0.2064608
77	0x3cf6b426	0.030115198
78	0x3d97130e	0.07376681
79	0x3e6097a7	0.21932851
80	0xbe051717	-0.1299709
81	0xbdfcbeef	-0.12341105
82	0x3e263eea	0.16234937
83	0xbbcfb6da	-0.0063389363
84	0x3e3b9a04	0.18320471
85	0x3b873744	0.004126461
86	0x3e52e2f2	0.20594385
87	0xbd3cda75	-0.046106774
88	0xbc8cbe40	-0.017180562
89	0x3db1c432	0.086799994
90	0x3e062334	0.13099366
91	0x3cdebd39	0.027189838
92	0x3e33bfe3	0.17553668
93	0x3e1b8b46	0.15189847
94	0xbe37b3b5	-0.17939647
95	0xbd8170a7	-0.06320315
96	0x3e3b824c	0.18311423
97	0xbdbe8544	-0.09302762
98	0xbddfc3ca	-0.10926016
99	0xbe74d687	-0.2390996
100	0xbe1011a7	-0.14069234
101	0xbcbb3ebb	-0.02285706
102	0xbde06603	-0.10956957
103	0xbe56d00e	-0.20977804
104	0xbd55f0eb	-0.05223171
105	0xbe1abaa1	-0.15110256
106	0xbe63d6fb	-0.22249977
107	0xbe3963ec	-0.18104523
108	0xbe75e870	-0.24014449
109	0xbe4ba56d	-0.19887324
110	0x3e3c3ae3	0.18381839
111	0xbc7c8c99	-0.0154143805
112	0xbc56016c	-0.013061862
113	0xbe83bab4	-0.2572838
114	0xbe59ee97	-0.21282421
115	0xbd84e6aa	-0.06489308
116	0xbbd6c4ea	-0.0065542357
117	0xbe756f5c	-0.23968261
118	0xbe2182bc	-0.15772527
119	0xbe560afc	-0.20902628
120	0x3ca5e279	0.020249592
121	0xbde3cfe2	-0.11123635
122	0xbdb50f4c	-0.08840808
123	0xbe693fd9	-0.22778262
124	0xbe7a068a	-0.24416557
125	0xbe1a0cc0	-0.15043926
126	0xbdd053cc	-0.10172233
127	0xbe33685a	-0.17520276
128	0x3e30db47	0.17271148
129	0xbc7a4b6d	-0.015276772
130	0x3e257275	0.16156943
131	0x3c67c88d	0.014146936
132	0xbe77cf0a	-0.24200073
133	0x3d790ff0	0.060806215
134	0xbdd7e743	-0.105421565
135	0xbd499ae5	-0.049219985
136	0xbe43494c	-0.1907093
137	0xbe901108	-0.28137994
138	0xbd45baad	-0.04827373
139	0xbde5dda1	-0.11223913
140	0x3e2d3220	0.16913652
141	0xbddbfe28	-0.10741836
142	0x3e1c66d3	0.152736
143	0xbe246c90	-0.16057038
144	0xbca221a5	-0.019791434
145	0x3e41a798	0.18911588
146	0x3e858b71	0.26082948
147	0x3e9d70f4	0.3075024
148	0x3ea196f5	0.31560484
149	0xbd20c0f8	-0.03924653

_body.0.bias f4 [6]
0	0x3eacca1f	0.33747956
1	0x3dcd8607	0.10035329
2	0xbd2b8d24	-0.04188265
3	0xbddd5400	-0.10807037
4	0x3ea47e10	0.32127428
5	0xbd124582	-0.03571082

_body.3.weight f4 [16, 6, 5, 5]
0	0xbb3ea25b	-0.002908847
1	0x3d084ee5	0.033278365
2	0x3d4a5aae	0.049402885
3	0xbdcd58ff	-0.1002674
4	0x3d19647e	0.037449352
5	0xbbac0ed0	-0.005250789
6	0x3dc369c2	0.09541656
7	0xbce47c4c	-0.0278913
8	0xbd2b446a	-0.04181329
9	0xbdae7236	-0.08517878
10	0xbe160e63	-0.14653926
11	0x3e28affa	0.1647338
12	0x3da22fe1	0.079192884
13	0xbe25683f	-0.16153048
14	0xbe15dd15	-0.14635117
15	0xbdc11d68	-0.09429437
16	0x3e4e3322	0.20136693
17	0x3d03da96	0.03219088
18	0xbe2b7f0d	-0.16747685
19	0xbdc9e79a	-0.098586276
20	0xbd82877a	-0.06373496
21	0x3e1fb3de	0.15595958
22	0x3cf3d3fa	0.029764164
23	0xbe692ed8	-0.22771776
24	0xbd4e7e7f	-0.050413605
25	0x3d514cbf	0.05109858
26	0x3d981551	0.07425941
27	0xbbcbc227	-0.006218213
28	0xbbbd21c1	-0.005771846
29	0x3c1544e2	0.009110661
30	0xbc97bc79	-0.018522488
31	0x3d3beda5	0.045880932
32	0x3b1f547e	0.0024311836
33	0xbd90d20c	-0.07071313
34	0xbd9a4a76	-0.075337335
35	0xbdaddc8d	-0.08489332
36	0x3e09a917	0.13443409
37	0x3d947387	0.072485976
38	0xbdcbb0e7	-0.09945851
39	0xbd82a167	-0.06378441
40	0xbc546bd2	-0.0129651595
41	0x3d9a2e5d	0.07528374
42	0xbbcf59a6	-0.0063278256
43	0xbd831528	-0.064005196
44	0xbdd8ce46	-0.105862185
45	0xbd84a7a3	-0.06477287
46	0x3d2841e5	0.041078467
47	0xbd912a59	-0.07088155
48	0xbdb88e54	-0.09011522
49	0xbdad72f4	-0.08469191
50	0xbe084344	-0.1330691
51	0xbdeec93b	-0.116594754
52	0x3c6cd2f9	0.014454597
53	0x3ac9fb83	0.0015410039
54	0xbbd1a87e	-0.0063982597
55	0xbd832896	-0.064042255
56	0xbd765e42	-0.060148485
57	0x3cd459fa	0.02592181
58	0xbd304d4d	-0.04304247
59	0x3c617f18	0.013763212
60	0xbd84972d	-0.06474147
61	0x3d8d186b	0.06889423
62	0x3e02a33a	0.12757578
63	0xbd9f7c8b	-0.077874266
64	0xbdc5fd18	-0.096674144
65	0x3d69b958	0.057061523
66	0x3dcfe8a6	0.10151796
67	0x3d3e9b50	0.046534836
68	0xbe0bbb53	-0.13645677
69	0x3cb94935	0.022617916
70	0x3dcf72dc	0.101293296
71	0x3e04579b	0.12924044
72	0xbd63a43c	-0.055576548
73	0xbe0ea731	-0.13930966
74	0xbda7a6b1	-0.08186091
75	0x3d03946e	0.032123975
76	0x3c283996	0.010267636
77	0x3d5cdca4	0.053921357
78	0x3cad69ea	0.021168668
79	0x3bcd869e	0.006272151
80	0xbd1d09bf	-0.038339373
81	0xbda06234	-0.07831231
82	0xbd9ab5e8	-0.07554227
83	0xbdd96d88	-0.106165946
84	0x3c870b9d	0.01648503
85	0xbd6eab7e	-0.058269016
86	0xbc1bcae6	-0.009508824
87	0xbd88583d	-0.06657455
88	0xbd297af6	-0.04137703
89	0xbd876003	-0.0661011
90	0xbce46c0b	-0.02788355
91	0x3d82cf23	0.063871644
92	0xbd09ad02	-0.03361226
93	0x3d18afb2	0.03727693
94	0xbce9c335	-0.028535465
95	0xbcc50075	-0.02404807
96	0x3b77673a	0.0037750737
97	0xbd60c359	-0.054873798
98	0xbd0d15a1	-0.034444455
99	0xbda1c781	-0.078993805
100	0x3d4c4954	0.04987462
101	0xbd780bb5	-0.06055804
102	0x3d6c596e	0.057702474
103	0x3d6fe4b1	0.058567706
104	0x3d7b2c86	0.061321758
105	0xbd7145b1	-0.058904354
106	0x3d629d38	0.055325717
107	0xbcbe5dac	-0.023238026
108	0x3d4bc033	0.049743842
109	0x3da299de	0.07939504
110	0xbbb5035f	-0.0055240835
111	0xbc291c13	-0.010321635
112	0xbc3d3570	-0.011548385
113	0xbd62470c	-0.055243537
114	0x3d1ee082	0.038788326
115	0xbdb4df62	-0.088316694
116	0x3d235763	0.03987826
117	0x3d9002d3	0.07031789
118	0x3db7207a	0.08941741
119	0xbca938ea	-0.020657022
120	0xbdbec3f3	-0.09314718
121	0x3b98b147	0.004659805
122	0x3d588dcd	0.052869607
123	0xbd92f914	-0.07176414
124	0xbc9d2050	-0.019180447
125	0xbd4d3b1d	-0.050105203
126	0xbc1e6552	-0.009667711
127	0xbd6617b5	-0.056174953
128	0xbd68181e	-0.056663625
129	0xbd25cdce	-0.040479474
130	0xbdeb5984	-0.11491683
131	0x3d04d8dc	0.032433376
132	0x3d03c04f	0.03216582
133	0xbd02144c	-0.031757638
134	0xbca02132	-0.019547079
135	0xbd905334	-0.0704712
136	0xbdf0cfd9	-0.11758394
137	0xbdf26404	-0.11835483
138	0x3c35367d	0.011060354
139	0xbd58b989	-0.052911315
140	0xbdabc98e	-0.08388053
141	0xbd772131	-0.06033439
142	0xbdb255f8	-0.087078035
143	0xbd823b2e	-0.06358944
144	0xbc9dce41	-0.019263389
145	0xbd34c7e9	-0.04413596
146	0xbd92ef4f	-0.07174551
147	0xbda2b434	-0.07944527
148	0xbdaac810	-0.0833894
149	0x3d792a63	0.06083144
150	0xbd59f2f1	-0.053210203
151	0xbc1c4f9f	-0.0095404675
152	0xbd4ee268	-0.050508887
153	0x3c75a7af	0.014993592
154	0x3de85b13	0.11345496
155	0x3cc44710	0.023959666
156	0x3c1f8f2f	0.0097387275
157	0x3e3600f0	0.17773795
158	0x3e4da416	0.20082125
159	0x3d18adb0	0.037275016
160	0x3ddec143	0.108767055
161	0x3e418917	0.18899952
162	0x3ddb6fb3	0.10714664
163	0x3c3a5bfa	0.011374468
164	0xbe3ded46	-0.18547544
165	0xbd74da0e	-0.059778266
166	0xbd0d4346	-0.034487985
167	0xbdda7820	-0.10667443
168	0xbe697bd6	-0.22801146
169	0xbe107001	-0.14105226
170	0xbdd63781	-0.10459805
171	0xbe4543c1	-0.19264127
172	0xbe45bea6	-0.19311008
173	0xbd6111f0	-0.054948747
174	0x3d8f7898	0.07005423
175	0xbc88baba	-0.0166906
176	0xbd2d55b1	-0.04231805
177	0xbb4f74c0	-0.0031655282
178	0x3ddbe2ad	0.10736594
179	0xbd388b56	-0.045054756
180	0x3cce3485	0.025171528
181	0x3e09fe49	0.13475908
182	0x3d78d917	0.060753908
183	0x3c811ace	0.015759852
184	0xbd96551c	-0.07340452
185	0xbce7d2b8	-0.02829872
186	0xbd5a3014	-0.053268507
187	0xbe036a28	-0.12833464
188	0xbe30ab23	-0.17252783
189	0xbddbccd4	-0.10732427
190	0x3d1d8ac2	0.038462408
191	0xbe0100b8	-0.1259793
192	0xbe21e354	-0.15809375
193	0xbca480c6	-0.020080935
194	0x3d06d273	0.032915544
195	0x3d400ee6	0.04688921
196	0x3d5bbb50	0.053645432
197	0x3d281de9	0.04104415
198	0xbd4c4d25	-0.04987826
199	0xb9676742	-0.00022068343
200	0x3d65573a	0.05599139
201	0xbc85c12e	-0.016327467
202	0xbcab0dd8	-0.020880625
203	0x3e15d50e	0.14632055
204	0x3d7e95f3	0.06215472
205	0xbd89922f	-0.067173354
206	0xbd866573	-0.06562319
207	0x3da517a9	0.080611534
208	0x3e08a2ad	0.13343306
209	0x3d6facc0	0.058514357
210	0x3ba73ad3	0.005103448
211	0xbd4e665f	-0.050390597
212	0xbd485d69	-0.048917208
213	0xbc082540	-0.008309662
214	0x3ca04090	0.019562036
215	0x3cc10fe0	0.02356714
216	0xbda28408	-0.07935339
217	0xbda1724a	-0.07883127
218	0xbdec5b6f	-0.11540877
219	0xbcfbbe6c	-0.030730449
220	0xbc6b748a	-0.014371047
221	0x3c88c17a	0.01669382
222	0x3d4ecb34	0.05048676
223	0xbd675462	-0.056476958
224	0x3db62ee6	0.08895664
225	0xbd52d813	-0.051475596
226	0x3c841c40	0.016126752
227	0x3d976b4a	0.07393511
228	0x3ce73037	0.028221233
229	0x3dd73d12	0.10509695
230	0xbd90c19f	-0.0706818
231	0xbc5df489	-0.013547071
232	0x3db9a873	0.09065332
233	0x3c9b1715	0.018931905
234	0xbc2ca476	-0.010537257
235	0xbc89d9d3	-0.0168275
236	0x3dae4e43	0.08511021
237	0x3d71b76a	0.059012808
238	0x3c69eb60	0.014277309
239	0xbd801482	-0.062539116
240	0xbd84e867	-0.0648964
241	0xbb5ce9ad	-0.0033708618
242	0x3ad494ad	0.0016218625
243	0xbd4e0432	-0.05029697
244	0xbc26751e	-0.010159759
245	0x3d1028d9	0.035195205
246	0xbc81387f	-0.01577401
247	0xbbc287cd	-0.005936599
248	0xbc23fff2	-0.010009753
249	0xbd88058e	-0.066416845
250	0xbd9cedcf	-0.07662546
251	0xbd59732e	-0.05308836
252	0xbd596d0c	-0.05308251
253	0x3ca5a461	0.020219984
254	0xbc80ff64	-0.01574678
255	0xbd4744a9	-0.048649464

_body.3.bias f4 [16]
0	0xbc3ec96e	-0.011644704
1	0x3d0eb4ad	0.034840275
2	0x3d7033ee	0.058643274
3	0xbab5ee08	-0.0013880143
4	0xbd124c1c	-0.035717115
5	0x3d7d2bdf	0.061809417
6	0x3d26cb01	0.040720943
7	0xbc0be4e6	-0.00853846
8	0xbd187784	-0.037223354
9	0xbc1a8859	-0.009431922
10	0xbd0889c3	-0.033334505
11	0x3d74e634	0.05978985
12	0x3c65a0d8	0.014015399
13	0x3c10fc8c	0.008849274
14	0x3cdb0d3f	0.026739715
15	0x3d248787	0.04016831

_head.0.weight f4 [120, 400]
0	0xbbb6bc1a	-0.0055766227
1	0x3d10a6f1	0.035315458
2	0x3d3fda4d	0.046839047
3	0xbbbcf6da	-0.0057667317
4	0x3b973ca7	0.0046153846
5	0xbd520cb3	-0.051281642
6	0xbd3b876d	-0.04578345
7	0x3c46ec21	0.012141258
8	0x3ac5675f	0.0015060714
9	0xbb869492	-0.0041070664
10	0x3d0bd40d	0.034137774
11	0xbd3a9711	-0.045554224
12	0xbd3dc7ec	-0.04633324
13	0xbcf1ef7c	-0.02953314
14	0x3c4c8a4f	0.012484147
15	0xbc6a629d	-0.014305738
16	0x3ced9663	0.029002374
17	0xbced9a41	-0.029004218
18	0xbc86a716	-0.016437095
19	0x3ce06d53	0.02739588
20	0x3cfd46dd	0.03091758
21	0x3c791761	0.015203328
22	0x3d329a13	0.043603968
23	0x3cec4063	0.028839296
24	0x3d2f1ad4	0.042750195
25	0x3cbc62fa	0.022996414
26	0x3d1e2ca7	0.038616803
27	0x3b1b3c1c	0.002368695
28	0xbd2e308b	-0.042526763
29	0xbcdd13c9	-0.026986973
30	0x3c9d2335	0.019181827
31	0x3d0aa7f0	0.033851564
32	0xbcf727aa	-0.03017028
33	0x3cd54f42	0.02603877
34	0x3c3d33d2	0.011547999
35	0x3cb89412	0.022531543
36	0x3cbcaa18	0.023030326
37	0x3c33e064	0.010978792
38	0x3d6fa278	0.05850455
39	0x3c81f62e	0.015864458
40	0x3ce9e98e	0.02855375
41	0xbd42fa31	-0.047601882
42	0xbd157321	-0.03648675
43	0xba829971	-0.0009963942
44	0x3cc97112	0.024590049
45	0x3cd95108	0.026527897
46	0x3c58c848	0.0132313445
47	0xbd65be7b	-0.05608986
48	0x3be4993a	0.006976274
49	0xbd1f39c6	-0.038873456
50	0xbc50300a	-0.012706766
51	0x3d2f0940	0.04273343
52	0xbcf20047	-0.029541148
53	0x3cdcb846	0.026943337
54	0xbd2a504d	-0.041580487
55	0x3cff2240	0.031144261
56	0x3d3415f6	0.043966256
57	0xbcf1b893	-0.029506957
58	0x3c875365	0.016519258
59	0x3a31debc	0.0006785204
60	0x3c089519	0.008336329
61	0x3d31a89c	0.04337369
62	0x3b837d31	0.0040127267
63	0xbc06a34f	-0.008217647
64	0x3cc8331b	0.024438431
65	0x3d4bd65e	0.049764983
66	0x3c41844d	0.011811328
67	0x3d66d9fa	0.056360222
68	0xbc342ef9	-0.010997527
69	0xbb61d7b2	-0.003446084
70	0x3db64202	0.08899309
71	0x3d6aec53	0.057354283
72	0x3b36ed9e	0.0027912627
73	0x3c8126de	0.015765604
74	0xbd2b7453	-0.041858982
75	0xbcf833d8	-0.030298159
76	0x3d409563	0.047017466
77	0x39aff72b	0.00033562756
78	0xbcd01224	-0.025399275
79	0x3ba48e91	0.005021878
80	0x3beaacc1	0.007161707
81	0xbc937ad8	-0.018002912
82	0xbd0748a8	-0.033028275
83	0xbd6d406f	-0.057922777
84	0x3a673e0a	0.0008821195
85	0xbcd9e682	-0.026599173
86	0x3d1f9399	0.03895912
87	0x3b4b23a9	0.0030996597
88	0xbd2ac476	-0.041691266
89	0xbcea551c	-0.028605036
90	0xbd3e6fe3	-0.046493422
91	0x3cc4b5bd	0.02401244
92	0x3d1eadb5	0.03873988
93	0xbd12b763	-0.035819422
94	0xbd30a2f7	-0.043124165
95	0x3d677c01	0.056514744
96	0xbb1c30ff	-0.0023832915
97	0xbd08bc97	-0.03338298
98	0xba3a6973	-0.000711105
99	0x3d0c51e1	0.034257773
100	0xbd7b6817	-0.061378565
101	0xbd52c67f	-0.051458832
102	0xbd821693	-0.06351962
103	0xbbdb01f4	-0.0066835824
104	0x3c3720ca	0.011177251
105	0xbd949dd6	-0.07256667
106	0x3cb6d8e4	0.022320218
107	0xbd5a023d	-0.05322479
108	0x3d42c6d2	0.04755289
109	0xbd3486bb	-0.0440738
110	0xbce72731	-0.02821693
111	0x3ce0cfe1	0.027442874
112	0xbcec5c4f	-0.02885261
113	0x3d195053	0.03743012
114	0xbd45d10b	-0.048295062
115	0xb89030bc	-6.8755326e-05
116	0xbd4dd8f2	-0.050255723
117	0x3bfdb3b8	0.0077423714
118	0x3d09b785	0.033622283
119	0x3d56b88c	0.05242209
120	0x3d073bf7	0.03301617
121	0xbc34511f	-0.011005669
122	0x3d77debe	0.060515158
123	0x3c4aff9b	0.012390043
124	0x3d2effcc	0.042724416
125	0xbcc30f68	-0.023811057
126	0xbcc619e1	-0.024182262
127	0xbd296ffd	-0.041366566
128	0x3d2931fc	0.041307434
129	0x3c134109	0.008987674
130	0xbd1d1d38	-0.038357943
131	0xbbeee64b	-0.0072906367
132	0xbd1d821a	-0.038454153
133	0xbc92c3c3	-0.017915612
134	0xbb5c8793	-0.0033650144
135	0xbcee41ff	-0.029084204
136	0xbafab851	-0.0019128417
137	0xbd0c9502	-0.034321792
138	0x3ccb16b8	0.024791107
139	0xbd1de98f	-0.038552817
140	0x3cc04dbc	0.023474567
141	0x3d212572	0.03934235
142	0x3d610bdf	0.05494296
143	0x3cc54d14	0.024084605
144	0x3d2014aa	0.039082207
145	0x3d837d56	0.0642039
146	0x3cf42699	0.029803561
147	0x3c114e16	0.008868715
148	0x3c258aa0	0.010103852
149	0x3d1f1dea	0.038846888
150	0x3d5bb2aa	0.053637184
151	0xbc803eab	-0.015654882
152	0xbb9f438c	-0.004860347
153	0xbc27a2e6	-0.010231709
154	0x3c99eeb8	0.018790588
155	0xbd345a42	-0.04403139
156	0x3c0b9325	0.008518969
157	0xbca81026	-0.020515513
158	0x3cc4bbd5	0.024015347
159	0x3c6c8a26	0.014437234
160	0xbcbf7bfa	-0.023374546
161	0x3ca5ab13	0.020223176
162	0x3cfb8fa3	0.03070814
163	0xbd1de19d	-0.03854524
164	0x3d5061df	0.050874587
165	0x3d60024e	0.054689698
166	0x3cf7b372	0.030236933
167	0xbc51ffd6	-0.012817344
168	0x3b643983	0.0034824319
169	0xbd11ee02	-0.035627373
170	0x3be9d987	0.007136527
171	0x3d4838ee	0.048882417
172	0x3d1621bd	0.03665327
173	0x3c92139e	0.01783162
174	0xbd47ffb8	-0.048827857
175	0x3d17b7f7	0.037040677
176	0xbc58dec7	-0.013236708
177	0x3d5e2d56	0.054242454
178	0x3d473aed	0.04864018
179	0x3ca54336	0.02017365
180	0x3d343a2c	0.04400079
181	0x3ca80417	0.020509763
182	0x3c82e170	0.015976638
183	0xbc21fd40	-0.00988704
184	0x3d8adaed	0.06780038
185	0x3c25cc18	0.0101194605
186	0x3c60d68b	0.013723026
187	0xbce22275	-0.027604321
188	0x3d496112	0.04916484
189	0x3d5dd75d	0.054160465
190	0xbd774788	-0.060370952
191	0x3c3c107c	0.01147854
192	0xbd827717	-0.06370371
193	0xbd3fdc5f	-0.04684102
194	0xbd4ef141	-0.050523046
195	0x3bc203bb	0.005920855
196	0xbd55745d	-0.052112926
197	0xbd169049	-0.036758695
198	0xbc8b14c7	-0.01697768
199	0x3cce44c6	0.025179278
200	0xbd49ae7e	-0.049238674
201	0xbca415ca	-0.020029921
202	0xbb3ef5c5	-0.002913819
203	0xba22d392	-0.0006211336
204	0xbd18d23d	-0.037309874
205	0x3c4f7855	0.012662967
206	0xbd028e3b	-0.031873923
207	0xbd4d9ffa	-0.050201394
208	0xbce7538a	-0.028238077
209	0xbd3fd0ee	-0.04683011
210	0x3cc4de03	0.024031645
211	0xbd2afc60	-0.04174459
212	0xbb95cc11	-0.0045714458
213	0x3c93352a	0.017969687
214	0xbd4d2fd0	-0.050094426
215	0x3d092ce0	0.03349006
216	0xbce0886d	-0.027408803
217	0x3bb66cd3	0.005567172
218	0xbd018b39	-0.031626914
219	0xbc614618	-0.013749622
220	0xbc00316c	-0.007824283
221	0xbd28fb5e	-0.041255347
222	0x3caf15d9	0.021372722
223	0x3b0eda53	0.0021797612
224	0x3d34b32a	0.044116177
225	0x3d0034af	0.031300243
226	0x3d325f5f	0.043547984
227	0x3b9e1379	0.0048240987
228	0x3d2e91af	0.042619403
229	0x3d7d798e	0.0618835
230	0x3d0c4bd7	0.034252014
231	0xbd3ff919	-0.046868417
232	0xbcd96c71	-0.026540967
233	0xbcdba6d7	-0.026812954
234	0x3cbf9337	0.023385627
235	0xbd07e3c8	-0.033176214
236	0x3c9460af	0.018112509
237	0xbb0e1e84	-0.002168567
238	0x3ca520a3	0.020157164
239	0xbc5bfb3d	-0.013426599
240	0xbd4c51ce	-0.049882703
241	0xbd0b9f3d	-0.03408741
242	0xbd797f66	-0.060912512
243	0xbd001406	-0.031269096
244	0x3d3b79ea	0.045770563
245	0xbd25166e	-0.040304594
246	0xbd9b7ff0	-0.075927615
247	0xbb8fec95	-0.0043922164
248	0x395262f4	0.00020064024
249	0xbb738dad	-0.0037163303
250	0x3c080298	0.0083014
251	0x3bfe71cb	0.00776503
252	0xbc72934d	-0.014805627
253	0x3d1b597a	0.03792713
254	0x3c4881b8	0.012237959
255	0xbc6cf6df	-0.0144631555

_head.0.bias f4 [120]
0	0xbd054001	-0.032531742
1	0x3c82dbb3	0.015973901
2	0xbc595602	-0.013265135
3	0x3cdf3c4c	0.027250431
4	0x3cc21dce	0.023695853
5	0x3d0cc477	0.03436705
6	0x3b0a8f17	0.0021142417
7	0xbc8fadd4	-0.017538942
8	0x3c05b4f9	0.008160823
9	0xbca7163a	-0.02039634
10	0x3c8ad412	0.016946826
11	0xbb2bee8c	-0.0026234714
12	0xbb702d19	-0.0036647974
13	0x3d5a3084	0.053268924
14	0xbd280aae	-0.04102581
15	0x3d128002	0.03576661
16	0x3c9319fb	0.017956724
17	0xbcfc94eb	-0.030832728
18	0x3d37079f	0.044685002
19	0xbc933ecb	-0.017974278
20	0xbd030e5c	-0.031996116
21	0xbc466990	-0.012110129
22	0x3a849d6d	0.0010117717
23	0xbd3cced4	-0.046095684
24	0x3b584c13	0.0033004328
25	0x3d0d0104	0.034424797
26	0xbd2a9c94	-0.04165323
27	0x3ceb73b4	0.028741695
28	0x3ca79100	0.020454884
29	0x3d58604d	0.052826215
30	0x3d41aa4b	0.047281545
31	0xbc498f33	-0.012302208
32	0xbc9560e5	-0.01823468
33	0xbd3a275f	-0.045447703
34	0xbc3c5f85	-0.011497383
35	0x3c65167a	0.01398241
36	0x3cdc3608	0.026881233
37	0x3d19dd1f	0.037564393
38	0x3c93387d	0.017971272
39	0xbbb28727	-0.0054482403
40	0x3c4c714e	0.012478186
41	0x3cea1537	0.02857457
42	0x3d149ace	0.036280446
43	0x3d0ad71a	0.033896543
44	0xbce09c7a	-0.027418364
45	0xbcd02e0f	-0.025412587
46	0xbc312def	-0.010814174
47	0xbb39e985	-0.0028367948
48	0xbd2d3db0	-0.042295158
49	0x3d141660	0.03615415
50	0x3d02d09f	0.031937238
51	0x3d61c001	0.05511475
52	0x3cbf2c96	0.02333669
53	0x3d4abbc6	0.04949548
54	0xbb15b110	-0.0022841133
55	0xbb11cca2	-0.0022247215
56	0x3ba1b350	0.004934706
57	0x3c9f0154	0.019409813
58	0x3c80780a	0.01568224
59	0x39cef11d	0.00039471025
60	0x3c0c7eb5	0.008575131
61	0xbd0e9c4d	-0.03481703
62	0x3a0d476b	0.0005389365
63	0x3d0107d5	0.03150161
64	0x3bf1de5c	0.0073812436
65	0xbd3b48bc	-0.04572366
66	0xbb973536	-0.0046144975
67	0xbc5431c1	-0.012951315
68	0x3d0a98ae	0.033837013
69	0x3d02cf02	0.0319357
70	0xbd092ce7	-0.033490088
71	0x3c978c5b	0.018499544
72	0x3cdf5fb6	0.027267318
73	0xbd0da0b0	-0.03457707
74	0xbc8c04f7	-0.017092211
75	0x3bc48a60	0.005997941
76	0x3cf740dd	0.030182296
77	0xbcb15e9b	-0.021651557
78	0x3c9900e7	0.018677188
79	0x3c82f904	0.01598788
80	0xbd279786	-0.04091599
81	0xbc6425a1	-0.013924987
82	0x3c600b90	0.013674632
83	0x3d0ef48e	0.034901194
84	0x3bf90b77	0.0076002437
85	0xbc97a75f	-0.018512426
86	0xbc5d2164	-0.0134967305
87	0x3c8ba29d	0.017045313
88	0x3ce9155e	0.028452571
89	0xbb5350a3	-0.0032244108
90	0x3d5a6098	0.053314775
91	0x3c093b96	0.008376023
92	0xbd2adc7b	-0.041714173
93	0x3b0d3dd9	0.0021551757
94	0xbb94a0a9	-0.0045357537
95	0xbc3039de	-0.010755984
96	0x3be491dd	0.006975396
97	0xbc839fef	-0.016067473
98	0xbcc0ef40	-0.023551583
99	0x3cf6939b	0.03009968
100	0x3d058111	0.03259379
101	0xbd06e403	-0.032932293
102	0x3bd84e5d	0.0066011385
103	0x3c9411bf	0.018074868
104	0xbbaf3bdd	-0.0053477124
105	0x3bec28c0	0.007207006
106	0xbc2f9b83	-0.010718229
107	0xbb94dabe	-0.0045426777
108	0xbd1edc53	-0.038784336
109	0x3d3faea5	0.046797413
110	0x3d3c4455	0.045963604
111	0x3cdafbe9	0.026731448
112	0xbc82a0c0	-0.015945792
113	0xbc897e33	-0.01678381
114	0x3be41e1b	0.0069615967
115	0x3d003857	0.03130373
116	0xbbd00449	-0.006348167
117	0xbbc3ad61	-0.005971596
118	0xbd13ccd4	-0.03608401
119	0xbcf759ac	-0.030194126

_head.2.weight f4 [84, 120]
0	0x3c0c35ba	0.008557731
1	0xbb8bf4c5	-0.004271122
2	0xbbbfc571	-0.0058523943
3	0x3da0dcbf	0.07854604
4	0x3cf83e6c	0.030303203
5	0xbd9b24ef	-0.07575404
6	0xbd8cc089	-0.06872661
7	0x3c8a9d9b	0.016920855
8	0x3d610d94	0.05494459
9	0xbdafe09e	-0.08587764
10	0x3cfb0ecf	0.03064671
11	0xbd273d8d	-0.040830184
12	0x3d1bf89f	0.0380789
13	0xbd35abbf	-0.044353243
14	0x3d9cd782	0.07658292
15	0x3da61dd0	0.08111155
16	0xbd8eb361	-0.069678076
17	0xbda8ef5d	-0.0824878
18	0x3cbe8c01	0.023260118
19	0x3d964e5e	0.07339166
20	0x3d2ebd12	0.04266078
21	0xbd3ad8cf	-0.04561692
22	0x3d99c144	0.075075656
23	0xbdb8a710	-0.0901624
24	0x3d9ca90d	0.076494314
25	0xbd0964e1	-0.03354347
26	0xbb91bdca	-0.0044476734
27	0x3a1903f6	0.0005837077
28	0xbcd71d46	-0.026259076
29	0xbc9b52fa	-0.018960465
30	0x3c42b49f	0.011883884
31	0x3c8ce825	0.017200539
32	0x3c2ec104	0.010666136
33	0x3dacbe3b	0.08434721
34	0xbb87d596	-0.0041453345
35	0xbd6c768d	-0.057730246
36	0xbda42177	-0.080141954
37	0x3d8ec81a	0.0697176
38	0xbd8af82b	-0.067856155
39	0x3d3c9367	0.04603901
40	0xbd58a2f8	-0.052889794
41	0xbd812ff9	-0.06307978
42	0x3c3de519	0.011590266
43	0x3d8d04d2	0.06885685
44	0xbda99fae	-0.082824096
45	0x3d69a8a2	0.057045586
46	0xbdb99f3e	-0.09063576
47	0xbc9dd85e	-0.019268211
48	0xbd077f56	-0.03308042
49	0xbd90a168	-0.07062036
50	0xbd8c1e3d	-0.06841705
51	0xbd2bd023	-0.04194654
52	0xbda38061	-0.07983471
53	0xbab8509e	-0.0014062112
54	0xbd789b6b	-0.060695093
55	0xbd29b720	-0.041434407
56	0xbd3ae38f	-0.045627173
57	0x3cf34da5	0.02970011
58	0xbccbeaa7	-0.024892164
59	0x3d47caa1	0.048777226
60	0x3d3fc563	0.046819102
61	0xbd8c5db4	-0.0685381
62	0xbc5a9612	-0.013341444
63	0xbdb63a73	-0.08897867
64	0x3d2f23c6	0.042758726
65	0xbca2ac4e	-0.019857552
66	0x3ccf7175	0.025322655
67	0x3cf1c0b0	0.029510826
68	0x3da3f1c6	0.08005099
69	0xbc1a1d6d	-0.00940643
70	0xbcdf8598	-0.027285382
71	0x3dad683a	0.08467145
72	0xbb017874	-0.0019755634
73	0x3c904393	0.017610347
74	0x3c1a1f25	0.0094068395
75	0xbd405ce7	-0.0469636
76	0x3d60b600	0.05486107
77	0xbda0e9db	-0.078571044
78	0x3d1e2ddc	0.038617954
79	0x3d30fa1a	0.043207265
80	0x3d7ae641	0.061254743
81	0xbd87ba6a	-0.066273525
82	0x3d80a05c	0.06280586
83	0x3d998690	0.07496369
84	0xbac3a26f	-0.0014925728
85	0xbdb0fc0b	-0.086418234
86	0xbc23dc40	-0.010001242
87	0xbbf5f1dd	-0.007505639
88	0xbda7f8e5	-0.0820177
89	0xbbbbf83f	-0.0057363803
90	0xbcffd586	-0.031229746
91	0xbda8f6c1	-0.082501896
92	0x3d72cf37	0.059279647
93	0x3ccc696e	0.024952617
94	0xbd1ff747	-0.03905418
95	0x3da86c4c	0.08223781
96	0x3b32e832	0.0027299044
97	0x3bf6c4a4	0.0075307656
98	0x3c4c0440	0.012452185
99	0xbd9a9301	-0.0754757
100	0xbd25a2eb	-0.040438574
101	0x3c8afac9	0.016965287
102	0xbd0ae7aa	-0.03391234
103	0x3d1473e4	0.036243334
104	0xbaa3c91c	-0.0012495848
105	0x3cc67cb9	0.024229394
106	0x3da6a7af	0.08137452
107	0xbd20606d	-0.03915446
108	0xbc4b5b26	-0.012411868
109	0xbd6b836f	-0.05749839
110	0xbd9d7dd2	-0.07690014
111	0x3cabdf32	0.020980451
112	0x3d8769a6	0.06611948
113	0x3cfb0f25	0.03064687
114	0xbd9b2a0f	-0.075763814
115	0x3d722222	0.059114583
116	0xbdb63b7f	-0.08898067
117	0xbd7dea32	-0.061990924
118	0x3db197ec	0.08671555
119	0xbd24246f	-0.04007381
120	0xbdb79ddf	-0.089656584
121	0xbd38c8f9	-0.045113537
122	0xbcdcfc81	-0.026975872
123	0x3cfab7e9	0.030605273
124	0xbd568f29	-0.052382622
125	0xbdc7e8c1	-0.09761191
126	0x3d39a61a	0.045324422
127	0x3d488928	0.048958927
128	0x3b0f3d6b	0.0021856676
129	0xbd1672dc	-0.036730632
130	0xbdd3cdc7	-0.10341983
131	0xbd07218d	-0.03299098
132	0xbd3c5904	-0.04598333
133	0x39c277bc	0.00037091773
134	0xbd41d550	-0.04732257
135	0xbd52c67f	-0.051458832
136	0xbda9c865	-0.08290175
137	0xbdcb06b4	-0.09913388
138	0x3dcf7d25	0.10131291
139	0x3b8718a5	0.004122811
140	0x3cc811ef	0.024422614
141	0x3ca32553	0.019915259
142	0xbd90829f	-0.07056164
143	0x3c9a7ce0	0.018858373
144	0xbdc3108e	-0.09524642
145	0x3de12345	0.10993055
146	0x3dc274de	0.09494947
147	0xbba3a349	-0.0049938303
148	0x3e0ade35	0.13561328
149	0xbd4996a1	-0.049215917
150	0x3c5dd92a	0.0135405455
151	0xbd3d83dd	-0.046268333
152	0xbd5b8aec	-0.053599283
153	0xbb893f53	-0.004188457
154	0x3d97ba21	0.07408548
155	0xbcd0d9d6	-0.025494497
156	0xbdc32e6c	-0.09530339
157	0x3bb2e367	0.0054592374
158	0xbd75a0f8	-0.059967965
159	0xbd69751f	-0.05699646
160	0xbd2ada8c	-0.04171233
161	0xbb25910c	-0.0025263457
162	0xbd719079	-0.05897567
163	0x3d4e2a54	0.050333336
164	0xbd41d718	-0.04732427
165	0x3ae845ad	0.001772096
166	0x3da4e0e0	0.08050704
167	0xbc80c5fb	-0.015719404
168	0x3e0f96af	0.14022325
169	0x3d944003	0.07238772
170	0x3cc4f0e6	0.02404065
171	0x3d80d80a	0.06291206
172	0x3d945cc7	0.072442584
173	0xbdb28336	-0.08716433
174	0xbdacc295	-0.08435551
175	0x3e11b078	0.14227474
176	0x3d454ef5	0.048171002
177	0x3d9553ce	0.07291375
178	0x3d29cdf6	0.041456185
179	0xbe080081	-0.13281442
180	0x3df4940c	0.119423
181	0xbcad6352	-0.021165524
182	0x3cb49108	0.022041813
183	0x3d9c98de	0.076463446
184	0x3d9793e1	0.074012525
185	0x3c0a30bc	0.008434471
186	0xbd40f355	-0.04710706
187	0xbd86c48c	-0.06580457
188	0x3d10c495	0.035343725
189	0x3da7ae1c	0.081875056
190	0xbd8347ec	-0.064102024
191	0xbd177cc9	-0.03698424
192	0x3e274301	0.16334154
193	0xbda0e22f	-0.07855641
194	0x3da292c9	0.07938153
195	0x3cd5f181	0.026116135
196	0x3dffaa9b	0.12483712
197	0xbcf1c1b5	-0.029511312
198	0x3d646809	0.05576328
199	0xbdaad5b7	-0.08341544
200	0xbc4fe2e1	-0.0126883695
201	0x3d94b33d	0.072607495
202	0xbd1d85eb	-0.038457792
203	0x3cf263e3	0.029588645
204	0xbc547d96	-0.012969395
205	0xbce350fd	-0.02774858
206	0xbd6337d9	-0.055473182
207	0xbda9dc92	-0.082940236
208	0x3d62e0f3	0.05539031
209	0xbd18e130	-0.03732413
210	0x3cafa145	0.021439204
211	0xbcb82742	-0.022479657
212	0x3d3ef33b	0.04661868
213	0x3e1269c6	0.14298162
214	0xbdca2614	-0.09870544
215	0xbd65600d	-0.055999804
216	0x3db30db5	0.08742849
217	0xbc83082f	-0.015995113
218	0xbd85045b	-0.06494971
219	0xbd4727b8	-0.048621863
220	0xbe038fd3	-0.12847833
221	0xbd389aa5	-0.045069356
222	0xbb354e4c	-0.0027665077
223	0x3dac7998	0.0842163
224	0x3c60f65c	0.013730612
225	0x3d052f8b	0.032516044
226	0x3c40a661	0.011758418
227	0xbd723482	-0.059132107
228	0x3d4f6ba9	0.050639782
229	0x3dbcb971	0.09215058
230	0xbc5b23ed	-0.013375265
231	0x3dbe9852	0.093063965
232	0x3e33e089	0.17566122
233	0x3cd3240a	0.02577402
234	0xbe0db745	-0.13839443
235	0x3df041a4	0.1173127
236	0x3d341c59	0.043972347
237	0x3d5a4d93	0.053296637
238	0x3d4f31d4	0.05058463
239	0x3ccfcf1b	0.02536731
240	0xbd3b26ca	-0.04569129
241	0x3d611b51	0.05495769
242	0xbdb52d1e	-0.08846496
243	0xbc1b0fc3	-0.009464207
244	0xbdc5a390	-0.09650338
245	0x3b776ea8	0.0037755165
246	0xbdf82bc5	-0.121177234
247	0xbbc05c5e	-0.005870386
248	0x3d8e6adb	0.06953975
249	0xbb9e03f6	-0.0048222495
250	0xbd130f55	-0.035903294
251	0x3d25d979	0.0404906
252	0x3d53ab28	0.0516769
253	0x3da6c479	0.08142943
254	0x3c0c1124	0.0085490085
255	0x3c8c6b28	0.01714094

_head.2.bias f4 [84]
0	0xbdb91c0d	-0.090385534
1	0x3dafcf4a	0.08584459
2	0x3d94c0c0	0.07263327
3	0x3d1dcad3	0.038523506
4	0x3c37ba8d	0.011213911
5	0x3b54dad8	0.0032479074
6	0x3c01fa39	0.007933193
7	0x3da5ef9c	0.081023425
8	0x3d747972	0.05968613
9	0xbd435c94	-0.04769571
10	0x3d36e4d7	0.044651832
11	0xbc9c220f	-0.01905921
12	0x3d7ea94d	0.062173177
13	0xbd27082f	-0.04077929
14	0x3d6a6a21	0.05723012
15	0x3cce3b79	0.025174843
16	0x3c6fc7ce	0.0146350395
17	0x3c86a88f	0.016437797
18	0x3d84f720	0.06492448
19	0x3dc4d242	0.09610416
20	0x3db901fb	0.09033581
21	0xbc840610	-0.016116172
22	0x3dc53406	0.09629063
23	0x3db1e08f	0.08685409
24	0x3da8403a	0.08215375
25	0x3d6ef119	0.058335397
26	0xbdbb2fd3	-0.09139981
27	0xbdc057ce	-0.093917474
28	0xbd8be649	-0.06831033
29	0xbd722920	-0.05912125
30	0xbdb810f2	-0.08987607
31	0x3cb5355b	0.022120168
32	0x3dbc2ce9	0.091882534
33	0xbcb9f6b6	-0.022700649
34	0x3d25888c	0.040413424
35	0x3cbc2221	0.022965493
36	0x3d212215	0.039339144
37	0x3c488fad	0.012241286
38	0x3d6a0b36	0.057139598
39	0x3cf396de	0.029735025
40	0x3cb31c43	0.021864062
41	0x3d38c5a8	0.045110375
42	0xbdb7d8fb	-0.089769326
43	0xbdad52d1	-0.084630616
44	0x3d5a4030	0.05328387
45	0xbda6ffaa	-0.08154233
46	0x3ca75a0a	0.020428676
47	0x3d35f419	0.044422243
48	0xbd886c3d	-0.0666127
49	0x3d8b8394	0.06812206
50	0xbd844257	-0.06457966
51	0xbd7f8612	-0.06238372
52	0x3d278b60	0.040904403
53	0x3d87045e	0.0659263
54	0x3c1a8323	0.0094306795
55	0xbcf2611e	-0.029587325
56	0x3c5c3e9c	0.013442662
57	0xbd52fdb2	-0.051511474
58	0xbd8d2a1a	-0.06892796
59	0xbd2b2862	-0.04178656
60	0xbb93969e	-0.004504039
61	0xbd19b29f	-0.037523862
62	0x3db2fa24	0.08739117
63	0x3d6bf117	0.057602968
64	0x3c882a4c	0.016621731
65	0x3d82d886	0.06388955
66	0xbd2574c5	-0.040394563
67	0x3d26c324	0.040713444
68	0xbd2f42b1	-0.04278821
69	0xbdb98648	-0.09058815
70	0x3d21c4fc	0.0394945
71	0x3cf1f0a3	0.02953369
72	0xbcbe2f8c	-0.023216031
73	0x3d20c5c0	0.03925109
74	0x3c9ff2f1	0.019525023
75	0x3d1ef506	0.03880789
76	0xba5fc390	-0.0008535916
77	0xbda0dcf1	-0.07854641
78	0xbdbbdb52	-0.091726914
79	0xbc870da0	-0.01648599
80	0x3c52d887	0.012869007
81	0xbd847029	-0.06466705
82	0x3d154884	0.03644611
83	0xbcff3211	-0.031151803

_head.4.weight f4 [10, 84]
0	0xbc908328	-0.017640665
1	0x3e00ab35	0.1256531
2	0xbd46c550	-0.048528016
3	0xbdb17baa	-0.08666165
4	0x3c845823	0.016155308
5	0xbe6e9e3b	-0.23302548
6	0x3e4d320e	0.20038626
7	0xbe27b690	-0.16378236
8	0x3e710d88	0.23540318
9	0x3d7c430e	0.061587386
10	0xbe40b2f4	-0.18818265
11	0x3e767eba	0.2407178
12	0xbe106021	-0.1409917
13	0xbda8c869	-0.0824135
14	0xbdcf0a86	-0.10109429
15	0xbd8ab4c8	-0.067727625
16	0x3e49e902	0.19717792
17	0xbdcf17d7	-0.10111969
18	0x3df6b5b0	0.12046373
19	0x3d2eb9af	0.04265755
20	0xbde57935	-0.11204759
21	0xbdaaa264	-0.08331755
22	0x3dfce6b6	0.12348692
23	0xbe9856ea	-0.2975381
24	0xbc817f77	-0.01580785
25	0x3de84d0c	0.113428205
26	0xbdec9864	-0.11552504
27	0x3e3b17cb	0.18270795
28	0x3d40702d	0.04698198
29	0xbe4b514d	-0.19855233
30	0x3bf3ee4e	0.0074441796
31	0x3c8451ed	0.016152347
32	0x3e2fc83d	0.17166229
33	0xbdb3f460	-0.08786845
34	0x3dcdc927	0.100481324
35	0x3cc6a31a	0.024247695
36	0x3ddc6886	0.10762124
37	0x3c5af3a0	0.013363749
38	0x3dd04f84	0.101714164
39	0xbe321a09	-0.17392744
40	0xbcee4ee2	-0.029090349
41	0x3e14a044	0.14514261
42	0xbd2928de	-0.04129874
43	0x3e82304e	0.2542748
44	0xbdf94014	-0.12170425
45	0x3ce4d1cb	0.027932068
46	0x3ddc6910	0.107622266
47	0xbdf1bd3b	-0.11803671
48	0x3dac2668	0.08405763
49	0xbdf3cad1	-0.119039185
50	0xbd65e9e5	-0.056131262
51	0xbd9b4484	-0.07581428
52	0xbd12a632	-0.035803027
53	0xbcc58907	-0.024113191
54	0x3ca888c4	0.020573027
55	0x3d51ef32	0.051253505
56	0xbe0831c1	-0.1330023
57	0x3df3ffe4	0.11914042
58	0xbe027058	-0.12738168
59	0x3d90703b	0.07052656
60	0x3de53bbe	0.111930355
61	0xbd15ba1a	-0.036554433
62	0xbda29799	-0.07939071
63	0x3c1fd9e0	0.009756535
64	0xbb849e7f	-0.0040472145
65	0xbd8bd663	-0.068280004
66	0x3d9ecaf5	0.07753555
67	0x3d0a1e12	0.033720084
68	0xbe0f5d62	-0.14000466
69	0x3cbda8a3	0.023151701
70	0x3bcbab3e	0.006215482
71	0x3dc28a68	0.09499055
72	0x3d025298	0.03181705
73	0xbc4b66f8	-0.012414686
74	0xbe13d2c1	-0.14435865
75	0xbe730c6e	-0.2373521
76	0x3d9f9830	0.07792699
77	0x3c7eb0e4	0.015545104
78	0x3ceaad20	0.028647006
79	0xbda75acb	-0.08171614
80	0x3ce9e7f5	0.028552989
81	0xbd499b8f	-0.049220618
82	0xbe0d3d3f	-0.13792895
83	0xbd91afa9	-0.07113583
84	0x3cc74e27	0.024329258
85	0xbe68d1e1	-0.22736312
86	0x3dddf719	0.10838146
87	0x3de09416	0.10965745
88	0x3d9cd661	0.07658077
89	0xbd93cdbf	-0.07216977
90	0x3c0bc728	0.008531369
91	0xbc8877d7	-0.016658707
92	0xbdc4beb3	-0.096066855
93	0xbdbd7c95	-0.09252278
94	0xbdc6d4d5	-0.09708563
95	0x3e1f0845	0.15530498
96	0x3e65b3ec	0.22431916
97	0x3dba3de1	0.09093834
98	0xbca47fda	-0.020080496
99	0xbd627e35	-0.05529614
100	0x3da8662c	0.08222613
101	0x3c7e2f37	0.015514187
102	0x3e085d9d	0.1331696
103	0xba3b92e1	-0.00071553705
104	0xbc94abe2	-0.018148366
105	0x3d6dd8aa	0.058067955
106	0xbdb92574	-0.09040347
107	0xbd435d73	-0.047696542
108	0x3d1249ec	0.03571503
109	0x3cf84010	0.030303985
110	0xbc484458	-0.012223326
111	0x3df5ebd7	0.120078735
112	0x3e815385	0.25259033
113	0x3e0e5a60	0.13901663
114	0x3ccbf5f5	0.024897555
115	0xbd95cce8	-0.073144734
116	0xbd15dc37	-0.036586966
117	0x3ddb022b	0.10693773
118	0xbe112a79	-0.14176358
119	0xbd83ffc7	-0.0644527
120	0xbde8c3ea	-0.11365493
121	0xbd81a3dc	-0.06330082
122	0xbdfadc09	-0.122489996
123	0xbdc5335d	-0.096289374
124	0x3ceab005	0.028648386
125	0xbc02771f	-0.007962971
126	0x3cac13bc	0.021005504
127	0x3da00da7	0.07815104
128	0x3d15702b	0.036483925
129	0xbe227bdd	-0.15867563
130	0x3cfd64a2	0.030931775
131	0x3d6c057f	0.05762243
132	0x3e1e2235	0.15442736
133	0x3e353c5e	0.1769881
134	0xbd2d1267	-0.042253878
135	0xbd802a62	-0.06258084
136	0x3df79244	0.12088445
137	0xbe4abf93	-0.19799642
138	0xbe430580	-0.19045067
139	0xbbee6700	-0.007275462
140	0x3d9a064b	0.075207315
141	0xbc4cfb12	-0.012511032
142	0xbd02f8dc	-0.031975612
143	0x3d339366	0.043841742
144	0xbe54ec76	-0.20793328
145	0x3d9daeb8	0.076993406
146	0x3dd7c7c7	0.105361514
147	0xbe46decf	-0.19420932
148	0xbe24a540	-0.16078663
149	0xbdc0ef8e	-0.094206914
150	0xbddc5310	-0.107580304
151	0x39d52ca9	0.000406598
152	0xbdd9ebc3	-0.10640671
153	0x3c3ff11d	0.011715201
154	0xbdfa71dd	-0.12228749
155	0x3dbbfab2	0.09178676
156	0xbce5def0	-0.028060406
157	0x3d2edb20	0.042689443
158	0x3e4236bf	0.18966196
159	0x3daa3dcc	0.08312568
160	0x3daf18c8	0.085496485
161	0xbd015e68	-0.031584173
162	0x3dbe4538	0.09290546
163	0x3e6c66fe	0.23086163
164	0x3dab276b	0.08357128
165	0x3e8be1f1	0.27320817
166	0xbd863bc5	-0.06554369
167	0x3da36371	0.07977951
168	0xbd6c55c3	-0.057698976
169	0xbe7ee526	-0.248921
170	0x3e55b216	0.20868716
171	0xbd15ec7a	-0.036602475
172	0xbd0e6841	-0.034767393
173	0x3d6def19	0.05808935
174	0x3d73b299	0.059496496
175	0x3e3524d2	0.17689827
176	0x3ea22062	0.3166533
177	0xbbdedfbc	-0.0068015736
178	0xbe2e989e	-0.17050406
179	0xbe117cc5	-0.14207752
180	0x3db4c4b9	0.08826584
181	0x3c5a9133	0.013340282
182	0xba5d576c	-0.0008443508
183	0x3d962eb3	0.07333126
184	0xbdc4f12b	-0.09616312
185	0xbcb4cd1c	-0.02207046
186	0x3e170592	0.14748219
187	0x3e2919f1	0.16513802
188	0x3e216ea3	0.15764861
189	0x3da78404	0.08179477
190	0xbcafb6aa	-0.021449406
191	0x3a9ef31a	0.0012126893
192	0x3cb0f703	0.02160216
193	0xbe32c343	-0.17457299
194	0x3d7c2273	0.06155629
195	0x3d09d27b	0.033647995
196	0xbd497944	-0.049187914
197	0x3d04e917	0.032448854
198	0xbd66b0bf	-0.056320902
199	0xbdd44107	-0.103639655
200	0x3cd474c1	0.025934579
201	0x3bd54b46	0.0065092174
202	0x3e92caa1	0.2867022
203	0x3d5cdbe5	0.053920645
204	0x3c2c0014	0.0104980655
205	0x3e0c222f	0.13684915
206	0xbd8e3b5c	-0.06944916
207	0x3e88f581	0.26749805
208	0x3dad51a6	0.08462839
209	0x3e035ecf	0.12829135
210	0xbd9aad9b	-0.07552644
211	0xbd2a8fa9	-0.04164091
212	0xbce67711	-0.028132947
213	0xbe1afecc	-0.1513626
214	0xbd5feab5	-0.054667193
215	0xbe01820a	-0.12647262
216	0xbe26477c	-0.16238207
217	0x3e1a1b75	0.15049537
218	0x3d7bdce1	0.061489943
219	0xbd0dc6b9	-0.034613345
220	0xbc4005ba	-0.011720115
221	0xbe2b1f25	-0.167111
222	0xbd900da5	-0.070338525
223	0x3e0be615	0.13661988
224	0xbd90fe23	-0.07079723
225	0xbe01405a	-0.12622204
226	0xbd58540f	-0.05281454
227	0xbc45fe36	-0.012084534
228	0xbc643757	-0.01392921
229	0x3dcbc950	0.09950507
230	0xbe02e3d3	-0.1278222
231	0xbd6eafc4	-0.058273092
232	0xbe2e563e	-0.17025086
233	0x3dab671a	0.083692744
234	0x3dcf738e	0.10129462
235	0x3c94f90c	0.018185161
236	0x3e253959	0.16135158
237	0x3d044337	0.032290664
238	0xbdf56277	-0.11981671
239	0xbd9f6d38	-0.07784504
240	0x3cd171da	0.025566984
241	0xbd8651dc	-0.06558582
242	0xbe4c899a	-0.19974366
243	0xbd52811c	-0.05139266
244	0xbd7dddde	-0.061979167
245	0xbd528d88	-0.051404506
246	0xbdaeafa1	-0.08529592
247	0xbe157bf4	-0.14598066
248	0xbe16d829	-0.14730896
249	0x3cfcf670	0.03087923
250	0x3e1376d0	0.14400792
251	0xbd250883	-0.04029132
252	0x3d86ac18	0.06575793
253	0xbdfc4a84	-0.123189
254	0xbe1ffbc1	-0.1562338
255	0x3dac5f82	0.08416654

_head.4.bias f4 [10]
0	0x3db0fc2e	0.086418495
1	0xbd99d312	-0.075109616
2	0xbd20b977	-0.039239373
3	0x3cb63cd4	0.022245802
4	0x3be4ddd1	0.0069844504
5	0xbb194ca6	-0.0023391633
6	0xbdf28e5b	-0.118435584
7	0xbcec0c06	-0.028814327
8	0x3ca7b0b3	0.020469999
9	0x3d9bdf3d	0.07610939
